quad_model.pth (torch, 7647 bytes, 3 tensors)

fc1.weight f4 [5, 301]
000000 f4 20 49 bd ba cc 0e bc 81 d9 3e 3c 5c ab 86 bd
       -0.049103692 -0.008715803 0.011648537 -0.06575653
000010 2c 2c 38 bd 45 97 85 3c b8 51 52 bd 76 73 0f bd
       -0.044964 0.016307482 -0.051347464 -0.03502222
000020 47 ee 30 bd af 40 71 3c b6 b9 7c bd 39 f0 a8 bc
       -0.04319599 0.014724894 -0.061700545 -0.02062236
000030 cf 3d e0 3c 28 19 9b bd b9 80 69 bd e4 99 86 bd
       0.027373223 -0.075731575 -0.057007525 -0.06572321
000040 d3 22 04 3c d2 0f 87 bd 61 34 93 bd 90 46 a1 3c
       0.008064943 -0.06594814 -0.07187725 0.019686967
000050 4a 6f 0f 3c 51 b5 ab bc 4c 1b fd 3c 58 30 10 3b
       0.008754561 -0.020960482 0.030896805 0.0022001471
000060 cf 20 97 bd 60 ee 05 bd 00 d9 c3 3c bb 47 90 bc
       -0.073793046 -0.032698035 0.023907185 -0.017612329
000070 a2 74 9a bd 25 c5 1b bd d6 78 0c bd ec b7 c4 ba
       -0.07541777 -0.03802981 -0.034294926 -0.0015008426
000080 e7 c4 b9 3b 19 20 11 bb eb ea e9 3c 37 16 cd bc
       0.0056692245 -0.0022144376 0.0285544 -0.025035007
000090 5c e4 95 bc 38 d9 63 bd 87 fc a3 3b 14 d9 4e bd
       -0.018297367 -0.055627078 0.005004469 -0.05049999
0000a0 c5 2e 3d bd fe 04 d5 3c 2f 28 b7 3c f3 aa 26 bd
       -0.04618718 0.026003357 0.022358028 -0.040690374
0000b0 ef 07 a0 3c 42 2a 82 bd bb 3c 94 3b 4d 6a 21 3c
       0.019535033 -0.06355716 0.004523841 0.009852004
0000c0 a2 c0 09 3d 75 66 80 bd b8 cd ea 3b 80 e0 84 bc
       0.033630975 -0.06269542 0.007165637 -0.016220331
0000d0 80 75 93 bc e4 4f 81 bd 07 65 7e bd 89 56 9b bc
       -0.018000364 -0.06314066 -0.062108066 -0.018962162
0000e0 ae 3e 66 bd 09 bb 05 3a bf 50 f5 3c 8f 22 68 b9
       -0.05621212 0.0005101418 0.02994573 -0.00022138118
0000f0 58 c9 3c bd 78 63 48 bd a4 60 fb bc 26 c8 88 3b
       -0.046090454 -0.048922986 -0.03068573 0.00417425
000100 e4 6d ff bc 7b 13 07 bd e0 a0 37 3d 6a 67 47 bc
       -0.03118033 -0.032977562 0.044831157 -0.012170652
000110 70 04 ad 3c ab 1b 9b bc d8 8d 3d bc f5 de 96 bb
       0.02112028 -0.018934092 -0.011569463 -0.0046042153
000120 2d db b8 bb bc 92 11 3d cd dc ae 3b 8e ea 96 3c
       -0.005641362 0.035540327 0.00533638 0.018422391
000130 0d 07 d6 3c 8e 31 78 bd 55 a4 02 bd ac 37 b0 bc
       0.026126409 -0.060594134 -0.031895 -0.021510921
000140 a6 a3 80 bd e2 bc 81 3c d5 ba cf bc 28 77 5b bd
       -0.062812135 0.015837137 -0.025357643 -0.053580433
000150 f8 6b 2a bd 7f 8f 84 3b cc e6 8f bd a3 67 ae 3c
       -0.041606873 0.0040454264 -0.07026443 0.021289652
000160 af eb 51 3c 23 7b bf 3c 59 2c 5a bd 7e 27 ad 3c
       0.012812539 0.023374146 -0.05326495 0.021136995
000170 1a 3a 71 bd cd 38 2e 3d 80 0f 71 bd d7 96 28 bd
       -0.0588933 0.04253464 -0.058852673 -0.041159477
000180 4d 2f b0 3c 12 c8 02 bd 13 d0 01 bb 49 7e a4 bc
       0.02150693 -0.031929083 -0.001980786 -0.020079749
000190 20 24 9d 3a 4e 79 f6 bc f7 5b 40 bd 77 85 e5 3c
       0.0011988916 -0.03008714 -0.046962705 0.028017743
0001a0 0a 32 8f 3c cf d2 bd 3c 37 f5 79 3c 1a 32 c5 bc
       0.017479915 0.02317181 0.015256218 -0.024071742
0001b0 4f c9 9a bd 05 48 aa bb 2a 95 97 3c c7 fe 50 bd
       -0.07557928 -0.0051965737 0.018503744 -0.051024225
0001c0 ca 5b c9 bb 1d d7 fe bc 9d d1 34 3c 25 5d 09 3c
       -0.0061449753 -0.031108433 0.011036304 0.008384024
0001d0 66 7a 3b bd 1c fd 05 3d e5 9e 5c bd c5 4b b4 bd
       -0.045771025 0.032712087 -0.05386247 -0.088035144
0001e0 78 38 9a bd 14 8c 0b 3d 0e 8d c8 bc bf 8c 9d bd
       -0.07530302 0.034069136 -0.024481323 -0.07692861
0001f0 32 d6 4b bd ab e9 3f 3b 61 ff 18 3c cf 1c 45 3c
       -0.04976482 0.0029283564 0.009338231 0.012030794
000200 84 aa c7 bc 45 f5 b3 bc 4b 17 dd bc 23 fa 44 bd
       -0.0243733 -0.02196754 -0.026988646 -0.04809011
000210 e4 27 27 bd 21 0c 8a bd 17 ce b2 3c ef d2 06 3d
       -0.040809527 -0.06740595 0.021826787 0.032916006
000220 b2 8f bb bd 3a 15 d4 bb 40 51 0e bd b6 06 89 bd
       -0.09158267 -0.006472257 -0.034745455 -0.06690733
000230 ad 45 ac 3c 0a 69 c7 bc 43 f1 55 bc a3 93 a4 3c
       0.021029318 -0.024342079 -0.01305801 0.02008993
000240 d1 48 fc bc c1 dd 72 39 55 29 1b 3c 98 6d a1 3c
       -0.03079644 0.00023161528 0.009470304 0.019705579
000250 8b 7f 38 bd 21 a1 61 bd 4a af dd bb d9 85 27 bb
       -0.04504351 -0.055085305 -0.006765281 -0.0025561957
000260 14 3d 10 bc 91 51 04 3d 19 3c 5b bd 56 79 4b 3c
       -0.008803625 0.03230435 -0.05352411 0.012419065
000270 3e 34 f4 bc 22 fb 04 bd ed 1a 74 bc 19 e0 dd 3c
       -0.029810067 -0.03246606 -0.014898998 0.027084397
000280 6b 57 7f bd c8 c4 df bc 4c 28 90 bc bf c3 8f bc
       -0.062339228 -0.027315512 -0.01759734 -0.017549394
000290 82 77 9c 3c 57 eb 04 bd 76 3e 6b bc ca f9 d0 3c
       0.019099955 -0.032451 -0.014358154 0.025509734
0002a0 90 67 77 3c 4f b8 87 bc 45 e2 54 bd e8 69 e2 3c
       0.015100375 -0.016567377 -0.0519736 0.02763839
0002b0 da 10 d5 3b 0a 3a f2 bb 2e 60 cd 3c 62 4d 2d 3c
       0.006502253 -0.0073921727 0.025070276 0.0105775315
0002c0 93 13 9b bd 06 b8 bb 3c 59 4d bd bc 9c 3a f4 3c
       -0.07572093 0.022914898 -0.023108171 0.029813103
0002d0 53 24 81 bd a9 0d b5 3c 7b d6 0d bd 31 9b cd 3c
       -0.063057564 0.02210124 -0.034628373 0.025098415
0002e0 e2 af 1d bc 35 37 87 bd 2c 7f 3e bd ad 12 1b 3d
       -0.009624453 -0.06602327 -0.046508 0.037859607
0002f0 38 fb 42 3d ea 60 d2 bb 21 74 10 bd ef c4 b6 bc
       0.047602862 -0.0064202445 -0.035267 -0.022310702
000300 a5 9e 0e 3d 24 4a 2e 3c 6e 90 42 bd 83 15 79 bd
       0.034819264 0.010637794 -0.04750102 -0.06081153
000310 34 f4 17 bd 3d fb ab 3c da 88 86 bd 5c 16 2c bd
       -0.037098125 0.020993823 -0.06569071 -0.04201351
000320 48 69 09 bd 89 88 5a bd 66 d3 36 bd 6a ee 89 bd
       -0.03354767 -0.053352866 -0.0446352 -0.06734927
000330 dd fd b8 bc 11 01 8a bd 90 d7 0f 3d 4a 10 51 3a
       -0.022581989 -0.06738485 0.035117686 0.00079751445
000340 fd c7 3b bd c4 3f 50 bd 5b f2 96 3c 22 94 49 bd
       -0.04584502 -0.05084206 0.018426111 -0.049213536
000350 37 ef 33 bd e1 18 07 bd c4 8d b4 3c c2 e5 25 bd
       -0.043929305 -0.03298271 0.022040255 -0.040502317
000360 bf 0c 5f 3d 21 43 e5 3c a2 95 43 3d f9 3a 03 bd
       0.054455515 0.027986111 0.047750123 -0.032038663
000370 55 e1 8b 3b 44 63 74 bc c2 dd b6 3c 0a 8c 85 bd
       0.004268805 -0.014916245 0.02232254 -0.06520851
000380 c3 7b 2d 3d 24 f6 68 bd b0 72 04 bd 7c 51 83 bd
       0.042354356 -0.056875363 -0.032335937 -0.06412026
000390 f1 78 e5 bb ba 2b 2c bd 56 88 b1 3c 3c 36 54 bc
       -0.0070029427 -0.04203389 0.021671455 -0.012952384
0003a0 ea 1d 92 bd cd 1a 02 bc 11 fb b4 bd 08 6d dc bc
       -0.07134612 -0.00794096 -0.088369496 -0.026907459
0003b0 cc dc fd 3c cc d2 55 bd 69 a0 14 bd 01 b0 c6 bc
       0.030989073 -0.052202985 -0.03628579 -0.024253847
0003c0 f4 00 67 bd 38 08 9d bb 1e 8a 47 bd e5 23 37 bc
       -0.056397393 -0.0047922395 -0.048715703 -0.0111779915
0003d0 49 aa e5 bc df 93 67 3c 33 5d 15 bd 9b 02 08 bd
       -0.0280353 0.014134376 -0.036465835 -0.03320561
0003e0 63 b2 d0 3b 5b cf 63 bd 06 61 9a 3b 48 5b 7f bd
       0.0063689216 -0.05561767 0.004711273 -0.062342912
0003f0 5f 8d cf 3c 40 17 f1 3c 64 cf 97 bd b3 0d d9 3a
       0.025335966 0.029430032 -0.074126035 0.0016559869

fc1.bias f4 [5]
000000 e6 d5 25 bd a0 fe 36 3d ee 59 91 3c a4 ca 80 bc
       -0.040487193 0.044676423 0.017743077 -0.015721627
000010 c2 65 17 3d
       0.03696228

fc3.weight f4 [1, 5]
000000 68 d9 d2 be 63 7d e0 be 81 e7 d8 3e a0 4e d6 3e
       -0.41181493 -0.43845662 0.42364123 0.4185686
000010 3d 63 e7 bd
       -0.11298225
