saved_model.pth (torch, 7647 bytes, 3 tensors)

fc1.weight f4 [5, 301]
0	0xbd4070b1	-0.04698247
1	0xbb498c2a	-0.003075371
2	0xbd0b4c88	-0.034008533
3	0xbccf59c4	-0.025311358
4	0xbd027d68	-0.031857878
5	0x3d39bc2e	0.045345478
6	0x3cfac515	0.030611554
7	0xbd1552a3	-0.03645576
8	0x3d2a04d9	0.04150853
9	0x3bdd48cd	0.0067530633
10	0x3cb38c09	0.02191736
11	0xbc851545	-0.016245494
12	0x3c1707b1	0.009218142
13	0x3c6c95d6	0.014440021
14	0x3d0af479	0.033924554
15	0xbce6b994	-0.028164662
16	0xbd1353dc	-0.035968646
17	0x3d246099	0.040131185
18	0xbd241b3d	-0.04006504
19	0x3d600034	0.054687694
20	0xba4c6955	-0.0007797678
21	0x3d58dd0f	0.052945193
22	0x3d4c2bac	0.049846336
23	0xbaa99244	-0.0012937267
24	0x3b4dee48	0.0031422544
25	0xbd3c44dc	-0.045964107
26	0x3c09c9cc	0.0084099285
27	0x3cb0887b	0.021549454
28	0x3a0e81d3	0.00054362154
29	0x3cd9adf5	0.026572207
30	0x3d40b5a8	0.04704824
31	0xbd4f45bd	-0.050603617
32	0xbd37d16c	-0.044877455
33	0x3d2a3f86	0.041564487
34	0xbc63acd4	-0.013896186
35	0x3d210e21	0.039320115
36	0x3ce7a49a	0.02827673
37	0x3d556572	0.0520987
38	0x3c1ed447	0.009694166
39	0xbd33538d	-0.043780852
40	0xbd10ab67	-0.035319712
41	0x3c43636b	0.011925559
42	0xbace8e49	-0.0015758957
43	0x3be210f0	0.0068989918
44	0x3d2a1ff7	0.04153439
45	0xbd16dd17	-0.03683194
46	0x3bce0eca	0.006288384
47	0xbcea76b4	-0.028621055
48	0x3cb69ac6	0.022290599
49	0xbd625f37	-0.055266585
50	0xbb6c8646	-0.0036090775
51	0x3d308ac5	0.04310109
52	0xbcfc7e7b	-0.03082203
53	0xbd66c1dd	-0.056337226
54	0x3c93ceb4	0.0180429
55	0xbc2f5ac8	-0.010702796
56	0xbd4bec77	-0.049786057
57	0xbc8c28aa	-0.017109234
58	0xbd6625b4	-0.0561883
59	0x3ca24112	0.019806419
60	0xbd0d3e59	-0.034483287
61	0xbc8295e9	-0.015940623
62	0x3d23d7ff	0.04000091
63	0xbbf1b203	-0.007375957
64	0x3d034ccc	0.03205566
65	0x3bc8b839	0.0061254767
66	0xbce5fe4f	-0.028075365
67	0xbceb9c1d	-0.028760964
68	0xbc866731	-0.016406627
69	0xbc5a835a	-0.013336981
70	0xbc847240	-0.01616776
71	0x3cd07c5e	0.025449928
72	0xbd156379	-0.036471818
73	0xbd2082c3	-0.039187204
74	0x3d61551c	0.055012807
75	0x3cebee65	0.028800199
76	0x3c40f4d5	0.0117771225
77	0x3d149d90	0.036283076
78	0xbc48ad72	-0.012248384
79	0x3d3996de	0.045309894
80	0x3bb33247	0.00546864
81	0x3cbd288f	0.023090629
82	0x3c9a466e	0.018832412
83	0x3c450230	0.012024447
84	0xbc6087c9	-0.013704249
85	0xbc36ec52	-0.011164742
86	0x3c44413e	0.011978446
87	0x3cf9e3db	0.030504158
88	0xbd4f84b0	-0.05066365
89	0xbd19993d	-0.037499655
90	0xbd3f0aaf	-0.046641048
91	0x3d427e25	0.047483582
92	0xbd3f9fa1	-0.046783093
93	0xbcdaa6f5	-0.02669094
94	0x3c61fe1f	0.013793497
95	0x3d4d4117	0.050110903
96	0xbc031ac8	-0.008001991
97	0xbd52e868	-0.05149117
98	0xbd4c5e76	-0.049894772
99	0xbd39f945	-0.045403738
100	0x3c3983c6	0.011322921
101	0xbbcd7cca	-0.0062709795
102	0x3d3a856d	0.0455374
103	0xbd3096f6	-0.043112718
104	0x3d329c40	0.043606043
105	0x3bf1cd55	0.007379214
106	0x3cadaee6	0.021201562
107	0x3bb69c25	0.005572813
108	0x3b4da958	0.0031381454
109	0xbc86ed30	-0.016470522
110	0xbbfb945d	-0.0076775984
111	0xbd663faf	-0.056213077
112	0x3c8af92e	0.016964521
113	0x3cbb8e84	0.022895105
114	0x3c1392b4	0.009007145
115	0xbcaf2137	-0.021378143
116	0x3af8ad66	0.0018972575
117	0x3d3516d4	0.044211224
118	0xbd403b1a	-0.046931364
119	0x3cfc0a86	0.030766737
120	0xbd1137e0	-0.035453677
121	0x3d68d51f	0.056843873
122	0xbc4f4fc0	-0.012653291
123	0x3c752a51	0.014963702
124	0xbbbbf683	-0.0057361736
125	0xbcc9fc8f	-0.024656562
126	0xba992a3a	-0.0011685558
127	0xbd1bbb89	-0.038020644
128	0xbd580a6b	-0.05274431
129	0x3d34e972	0.044167943
130	0xbbbc7f00	-0.0057524443
131	0xbd32305f	-0.04350316
132	0xbb85e7b9	-0.0040864614
133	0x3d57bb09	0.052668605
134	0x3c65f507	0.01403547
135	0xbd3dc97b	-0.046334725
136	0xbc0ae544	-0.008477513
137	0x3cba5d16	0.022749465
138	0xbd5cee1f	-0.053938027
139	0xbd066989	-0.03281549
140	0x3c5dc1d8	0.0135349855
141	0x3b5b52a6	0.003346601
142	0x3c609067	0.013706303
143	0x3d222762	0.03958834
144	0x3d354270	0.044252813
145	0x3b9aab6d	0.0047201426
146	0xbd32b578	-0.043630093
147	0x3d1a0291	0.037600104
148	0x3c4c01fc	0.012451645
149	0x3d583315	0.05278309
150	0x3c2a0c1e	0.0103788655
151	0xbc8c7984	-0.017147787
152	0xbcb7d2c6	-0.022439372
153	0xbd4314f5	-0.047627408
154	0xbd085c6c	-0.033291265
155	0xbd3a1b42	-0.04543615
156	0x3c8bf667	0.017085267
157	0x3cd8b785	0.026454696
158	0xbce43169	-0.027855592
159	0x3d4afc4c	0.049557015
160	0xbc8ee9fe	-0.01744556
161	0xbcc03817	-0.023464246
162	0x3d415455	0.047199566
163	0x3bebb931	0.0071937074
164	0x3cf1c3b1	0.029512258
165	0x3d5e7b9b	0.054317098
166	0xbc69acda	-0.014262402
167	0xbc85a481	-0.016313793
168	0xbc6b4719	-0.014360213
169	0x3d2f19de	0.04274928
170	0xbc63946b	-0.013890366
171	0x3c960a09	0.018315332
172	0x3d69a905	0.057045955
173	0x3c0f6296	0.008751532
174	0xbb36ab3f	-0.0027873067
175	0x3d573ac4	0.052546278
176	0x3d3967b6	0.045264922
177	0xbc9285e3	-0.017886108
178	0xbc14e409	-0.009087571
179	0x3d09932b	0.033587616
180	0xbb923f18	-0.004463088
181	0x3d0dfc92	0.034664698
182	0xbd43aa1f	-0.047769662
183	0x3d17f778	0.03710124
184	0xbcf3b025	-0.029747078
185	0xbd5812d9	-0.05275235
186	0xbd44d14a	-0.048051156
187	0xbc6ec44d	-0.014573169
188	0xbccb3cbe	-0.024809238
189	0xbc900ccf	-0.017584233
190	0xbd0f7cd0	-0.03503114
191	0x3c31feeb	0.010864
192	0x3cb0cccc	0.02158203
193	0x3ceaec58	0.02867715
194	0x3d3f8456	0.046757065
195	0x3c58d2b6	0.013233831
196	0xbbbd3fdc	-0.005775435
197	0x3cc5a0c8	0.024124518
198	0xbd090925	-0.033455987
199	0xbc8e29e9	-0.017353969
200	0x3c41dd67	0.011832572
201	0xbcc23893	-0.023708617
202	0x3d416586	0.04721596
203	0x3d2a0d3f	0.04151654
204	0x3d54edbf	0.051984545
205	0xbd101224	-0.03517355
206	0xbd62ba80	-0.05535364
207	0x3d04d4f2	0.032429643
208	0xbd61bf72	-0.055114217
209	0x3ca34937	0.019932372
210	0xbaa35c1f	-0.0012463367
211	0x3d4190d8	0.047257274
212	0xbd3538d6	-0.044243656
213	0xbcaecdba	-0.021338332
214	0x3cc4823f	0.023987887
215	0x3bbe4728	0.0058068223
216	0x3b40581c	0.0029349392
217	0x3d01bfb5	0.031676967
218	0xbd034b96	-0.032054506
219	0x3c5d7b61	0.013518185
220	0x3ce07f69	0.027404504
221	0x3d5345ae	0.051580124
222	0x3d225879	0.039635155
223	0x3ccfed26	0.025381636
224	0x3ce8b731	0.028407665
225	0x3d5f9fb5	0.054595668
226	0x3cd42e09	0.025900858
227	0x3d031bc5	0.032008905
228	0x3ccb1858	0.024791881
229	0x3d2a264a	0.04154042
230	0x3d1098e3	0.035302054
231	0xbd143743	-0.036185514
232	0xbc89a6a3	-0.016803091
233	0xbd1d2ee1	-0.038374785
234	0xbcb7ab61	-0.022420587
235	0x3c1b36af	0.009473487
236	0x3be41ca6	0.006961423
237	0x3bc9ad6c	0.0061547067
238	0xbccb9693	-0.024852073
239	0x3d288fc5	0.041152734
240	0xbcb019ea	-0.021496732
241	0xbcf82617	-0.0302916
242	0xbb7ad39f	-0.0038273109
243	0x3d2ae769	0.041724596
244	0xbd604b7b	-0.054759484
245	0xbd5a9ff4	-0.0533752
246	0xbd1460ec	-0.036225244
247	0xbd1637b7	-0.036674228
248	0xbc3e0ef5	-0.011600246
249	0x3d25e528	0.040501744
250	0x3c863145	0.016380915
251	0x3b7c6ca0	0.0038516894
252	0x3b21b9a9	0.0024677312
253	0x3ca28764	0.01983995
254	0x3cbc9a74	0.023022868
255	0xbd3700cc	-0.044678494

fc1.bias f4 [5]
0	0x3e6652bf	0.22492503
1	0xbd071109	-0.03297523
2	0xbd13ad1d	-0.036053766
3	0x3f0b31fe	0.5437316
4	0xbeb4c417	-0.35305855

fc3.weight f4 [1, 5]
0	0xbf204666	-0.6260742
1	0xbed8fb41	-0.42379192
2	0xbe59c4a7	-0.21266423
3	0xbedb0690	-0.42778444
4	0x3e8565fb	0.26054367
